results/minimal_model_epoch1.pt (torch, 234804 bytes, 59 tensors)

neural_ode_gnn.adj_matrix f4 [162, 162]
0	0x00000000	0.0
1	0x3f800000	1.0
2	0x3f800000	1.0
3	0x3f800000	1.0
4	0x3f800000	1.0
5	0x3f800000	1.0
6	0x3f800000	1.0
7	0x3f800000	1.0
8	0x3f800000	1.0
9	0x3f800000	1.0
10	0x3f800000	1.0
11	0x3f800000	1.0
12	0x3f800000	1.0
13	0x3f800000	1.0
14	0x3f800000	1.0
15	0x3f800000	1.0
16	0x3f800000	1.0
17	0x3f800000	1.0
18	0x3f800000	1.0
19	0x3f800000	1.0
20	0x3f800000	1.0
21	0x3f800000	1.0
22	0x3f800000	1.0
23	0x3f800000	1.0
24	0x3f800000	1.0
25	0x3f800000	1.0
26	0x3f800000	1.0
27	0x3f800000	1.0
28	0x3f800000	1.0
29	0x3f800000	1.0
30	0x3f800000	1.0
31	0x3f800000	1.0
32	0x3f800000	1.0
33	0x3f800000	1.0
34	0x3f800000	1.0
35	0x3f800000	1.0
36	0x3f800000	1.0
37	0x3f800000	1.0
38	0x3f800000	1.0
39	0x3f800000	1.0
40	0x3f800000	1.0
41	0x3f800000	1.0
42	0x3f800000	1.0
43	0x3f800000	1.0
44	0x3f800000	1.0
45	0x3f800000	1.0
46	0x3f800000	1.0
47	0x3f800000	1.0
48	0x3f800000	1.0
49	0x3f800000	1.0
50	0x3f800000	1.0
51	0x3f800000	1.0
52	0x3f800000	1.0
53	0x3f800000	1.0
54	0x3f800000	1.0
55	0x3f800000	1.0
56	0x3f800000	1.0
57	0x3f800000	1.0
58	0x3f800000	1.0
59	0x3f800000	1.0
60	0x3f800000	1.0
61	0x3f800000	1.0
62	0x3f800000	1.0
63	0x3f800000	1.0
64	0x3f800000	1.0
65	0x3f800000	1.0
66	0x3f800000	1.0
67	0x3f800000	1.0
68	0x3f800000	1.0
69	0x3f800000	1.0
70	0x3f800000	1.0
71	0x3f800000	1.0
72	0x3f800000	1.0
73	0x3f800000	1.0
74	0x3f800000	1.0
75	0x3f800000	1.0
76	0x3f800000	1.0
77	0x3f800000	1.0
78	0x3f800000	1.0
79	0x3f800000	1.0
80	0x3f800000	1.0
81	0x3f800000	1.0
82	0x3f800000	1.0
83	0x3f800000	1.0
84	0x3f800000	1.0
85	0x3f800000	1.0
86	0x3f800000	1.0
87	0x3f800000	1.0
88	0x3f800000	1.0
89	0x3f800000	1.0
90	0x3f800000	1.0
91	0x3f800000	1.0
92	0x3f800000	1.0
93	0x3f800000	1.0
94	0x3f800000	1.0
95	0x3f800000	1.0
96	0x3f800000	1.0
97	0x3f800000	1.0
98	0x3f800000	1.0
99	0x3f800000	1.0
100	0x3f800000	1.0
101	0x3f800000	1.0
102	0x3f800000	1.0
103	0x3f800000	1.0
104	0x3f800000	1.0
105	0x3f800000	1.0
106	0x3f800000	1.0
107	0x3f800000	1.0
108	0x3f800000	1.0
109	0x3f800000	1.0
110	0x3f800000	1.0
111	0x3f800000	1.0
112	0x3f800000	1.0
113	0x3f800000	1.0
114	0x3f800000	1.0
115	0x3f800000	1.0
116	0x3f800000	1.0
117	0x3f800000	1.0
118	0x3f800000	1.0
119	0x3f800000	1.0
120	0x3f800000	1.0
121	0x3f800000	1.0
122	0x3f800000	1.0
123	0x3f800000	1.0
124	0x3f800000	1.0
125	0x3f800000	1.0
126	0x3f800000	1.0
127	0x3f800000	1.0
128	0x3f800000	1.0
129	0x3f800000	1.0
130	0x3f800000	1.0
131	0x3f800000	1.0
132	0x3f800000	1.0
133	0x3f800000	1.0
134	0x3f800000	1.0
135	0x3f800000	1.0
136	0x3f800000	1.0
137	0x3f800000	1.0
138	0x3f800000	1.0
139	0x3f800000	1.0
140	0x3f800000	1.0
141	0x3f800000	1.0
142	0x3f800000	1.0
143	0x3f800000	1.0
144	0x3f800000	1.0
145	0x3f800000	1.0
146	0x3f800000	1.0
147	0x3f800000	1.0
148	0x3f800000	1.0
149	0x3f800000	1.0
150	0x3f800000	1.0
151	0x3f800000	1.0
152	0x3f800000	1.0
153	0x3f800000	1.0
154	0x3f800000	1.0
155	0x3f800000	1.0
156	0x3f800000	1.0
157	0x3f800000	1.0
158	0x3f800000	1.0
159	0x3f800000	1.0
160	0x3f800000	1.0
161	0x3f800000	1.0
162	0x3f800000	1.0
163	0x00000000	0.0
164	0x3f800000	1.0
165	0x3f800000	1.0
166	0x3f800000	1.0
167	0x3f800000	1.0
168	0x3f800000	1.0
169	0x3f800000	1.0
170	0x3f800000	1.0
171	0x3f800000	1.0
172	0x3f800000	1.0
173	0x3f800000	1.0
174	0x3f800000	1.0
175	0x3f800000	1.0
176	0x3f800000	1.0
177	0x3f800000	1.0
178	0x3f800000	1.0
179	0x3f800000	1.0
180	0x3f800000	1.0
181	0x3f800000	1.0
182	0x3f800000	1.0
183	0x3f800000	1.0
184	0x3f800000	1.0
185	0x3f800000	1.0
186	0x3f800000	1.0
187	0x3f800000	1.0
188	0x3f800000	1.0
189	0x3f800000	1.0
190	0x3f800000	1.0
191	0x3f800000	1.0
192	0x3f800000	1.0
193	0x3f800000	1.0
194	0x3f800000	1.0
195	0x3f800000	1.0
196	0x3f800000	1.0
197	0x3f800000	1.0
198	0x3f800000	1.0
199	0x3f800000	1.0
200	0x3f800000	1.0
201	0x3f800000	1.0
202	0x3f800000	1.0
203	0x3f800000	1.0
204	0x3f800000	1.0
205	0x3f800000	1.0
206	0x3f800000	1.0
207	0x3f800000	1.0
208	0x3f800000	1.0
209	0x3f800000	1.0
210	0x3f800000	1.0
211	0x3f800000	1.0
212	0x3f800000	1.0
213	0x3f800000	1.0
214	0x3f800000	1.0
215	0x3f800000	1.0
216	0x3f800000	1.0
217	0x3f800000	1.0
218	0x3f800000	1.0
219	0x3f800000	1.0
220	0x3f800000	1.0
221	0x3f800000	1.0
222	0x3f800000	1.0
223	0x3f800000	1.0
224	0x3f800000	1.0
225	0x3f800000	1.0
226	0x3f800000	1.0
227	0x3f800000	1.0
228	0x3f800000	1.0
229	0x3f800000	1.0
230	0x3f800000	1.0
231	0x3f800000	1.0
232	0x3f800000	1.0
233	0x3f800000	1.0
234	0x3f800000	1.0
235	0x3f800000	1.0
236	0x3f800000	1.0
237	0x3f800000	1.0
238	0x3f800000	1.0
239	0x3f800000	1.0
240	0x3f800000	1.0
241	0x3f800000	1.0
242	0x3f800000	1.0
243	0x3f800000	1.0
244	0x3f800000	1.0
245	0x3f800000	1.0
246	0x3f800000	1.0
247	0x3f800000	1.0
248	0x3f800000	1.0
249	0x3f800000	1.0
250	0x3f800000	1.0
251	0x3f800000	1.0
252	0x3f800000	1.0
253	0x3f800000	1.0
254	0x3f800000	1.0
255	0x3f800000	1.0

neural_ode_gnn.encoder.0.weight f4 [32, 1]
0	0x3f1ad830	0.60486126
1	0x3e453631	0.19258954
2	0x3f56e9fb	0.83950776
3	0xbe166653	-0.14687471
4	0x3f5cd796	0.8626646
5	0x3ce68183	0.028137928
6	0xbf6723b1	-0.90288836
7	0xbf057eb3	-0.5214645
8	0xbf29ec82	-0.6637651
9	0xbf0093d6	-0.5022558
10	0x3f2fe200	0.68704224
11	0xbf478038	-0.7793002
12	0x3ed192b8	0.4093225
13	0xbe9ec0ab	-0.3100637
14	0xbf12b985	-0.5731433
15	0x3f237308	0.638474
16	0xbf184bd2	-0.5949069
17	0x3e092ab8	0.13395202
18	0xbe3e36e6	-0.1857563
19	0xbeeda2a9	-0.46413162
20	0xbe1bf831	-0.15231396
21	0xbeecd7f7	-0.46258518
22	0x3f2396ed	0.6390217
23	0x3e6b4115	0.22974046
24	0xbf40279b	-0.75060433
25	0xbf530d54	-0.8244221
26	0x3f3934ff	0.7234649
27	0x3e9e3e9b	0.3090714
28	0x3f10531b	0.5637681
29	0x3f69cbc7	0.91326565
30	0x3e77bb89	0.24192633
31	0x3f05b3e2	0.52227604

neural_ode_gnn.encoder.0.bias f4 [32]
0	0x3f6a9b9b	0.91643685
1	0x3ead1628	0.33805966
2	0xbf27ed7f	-0.65596765
3	0xbf7a7623	-0.9783651
4	0x3f40a0ed	0.75245553
5	0x3efb3aac	0.490682
6	0x3f6c7207	0.9236149
7	0xbeb7b3fd	-0.35879508
8	0xbf06f49c	-0.52716994
9	0xbf148754	-0.58018994
10	0x3f71074d	0.94151765
11	0x3ef4283e	0.47686952
12	0xbebce39a	-0.36892396
13	0xbec3dec8	-0.38255906
14	0x3f2384f2	0.63874733
15	0x3cb40807	0.021976484
16	0xbf0f08c7	-0.5587277
17	0x3e69cbe2	0.22831681
18	0x3f70f21c	0.9411943
19	0x3ebfbef6	0.3745038
20	0x3ee7a5ae	0.4524359
21	0x3e7e8cea	0.24858442
22	0x3f20b1ff	0.627716
23	0x3e019e3b	0.12658016
24	0xbf7f2e8c	-0.996804
25	0xbf0e72d5	-0.5564397
26	0x3e55424e	0.20826074
27	0xbec8a009	-0.39184597
28	0xbf26bfa0	-0.65136147
29	0x3e8a2627	0.26982233
30	0x3eec6a8b	0.46175036
31	0x3f22f670	0.63657284

neural_ode_gnn.encoder.1.weight f4 [32]
0	0x3f7f6eb1	0.99778277
1	0x3f7f9572	0.9983741
2	0x3f8040ed	1.0019814
3	0x3f7fe2fc	0.99955726
4	0x3f8044a3	1.0020946
5	0x3f7fa87d	0.9986647
6	0x3f80455e	1.0021169
7	0x3f7f6ee7	0.997786
8	0x3f8047a1	1.002186
9	0x3f7f739e	0.9978579
10	0x3f7f7971	0.9979468
11	0x3f804596	1.0021236
12	0x3f7f6f7f	0.99779505
13	0x3f7f6555	0.99763995
14	0x3f7f7258	0.9978385
15	0x3f7fb147	0.9987988
16	0x3f803bcf	1.0018252
17	0x3f80492e	1.0022333
18	0x3f802908	1.0012522
19	0x3f803241	1.0015336
20	0x3f80428c	1.0020308
21	0x3f7f69f5	0.9977105
22	0x3f7f7211	0.99783427
23	0x3f7f75a2	0.9978887
24	0x3f80254a	1.001138
25	0x3f804512	1.0021079
26	0x3f7fcf39	0.9992557
27	0x3f8019d3	1.0007881
28	0x3f7f68ef	0.9976949
29	0x3f7f8a71	0.9982062
30	0x3f80184f	1.0007418
31	0x3f7f7078	0.9978099

neural_ode_gnn.encoder.1.bias f4 [32]
0	0xbb11d9ad	-0.002225499
1	0xbad0ac0d	-0.0015920416
2	0x3b0157a2	0.001973607
3	0xba060d9f	-0.0005113724
4	0x3b08c137	0.0020867118
5	0xbab34e01	-0.0013679863
6	0x3b0bba61	0.0021320807
7	0xbb11d9c8	-0.0022255052
8	0x3b1008e8	0.0021977965
9	0xbb0c0a70	-0.0021368526
10	0xbb06da02	-0.002057672
11	0x3ae86b2f	0.0017732139
12	0xbb13a447	-0.0022528337
13	0xbb141abf	-0.002259895
14	0xbb0c109a	-0.00213722
15	0xba7863e4	-0.0009475334
16	0x3aefdc26	0.0018299862
17	0x3b1207af	0.0022282412
18	0x3aa0b5ce	0.0012261213
19	0x3adf1c47	0.0017021977
20	0x3af3badf	0.0018595121
21	0xbb1528b3	-0.0022759854
22	0xbb0e8476	-0.0021746433
23	0xbb0ad899	-0.0021186231
24	0x3ac339ce	0.0014894546
25	0x3b0b331f	0.0021240187
26	0xba504392	-0.0007944639
27	0x3a455450	0.0007527517
28	0xbb173116	-0.002307003
29	0xbae6c5fe	-0.0017606614
30	0x3a03b5a0	0.00050243177
31	0xbb0fab31	-0.0021922106

neural_ode_gnn.encoder.3.weight f4 [64, 32]
0	0x3e2c9ab7	0.16855894
1	0xbd3933c9	-0.0452154
2	0xbd2a9817	-0.04164895
3	0x3d05b746	0.032645486
4	0x3c77a3da	0.015114749
5	0x3d9b7569	0.075907536
6	0x3e1f93a6	0.15583667
7	0xbd7eb646	-0.06218555
8	0x3c90dd2d	0.01768359
9	0xbe2f2b35	-0.17106326
10	0x3e32771f	0.17428254
11	0xbd9066c9	-0.07050855
12	0xbdf9e987	-0.12202745
13	0x3e205f42	0.15661338
14	0xbe2fa1d6	-0.1715158
15	0xbdbf5885	-0.09343056
16	0xbe05d9b5	-0.1307133
17	0x3d769df2	0.060209222
18	0xbe1fab60	-0.15592718
19	0x3a6563bd	0.0008750519
20	0xbd2d573e	-0.04231953
21	0x3d9c3303	0.07626917
22	0x3e0c62c8	0.13709557
23	0x3d195919	0.037438486
24	0x3dfcd75a	0.123457626
25	0xbd5ca765	-0.053870577
26	0x3dcf3103	0.1011677
27	0x3dd3efa9	0.10348446
28	0xbdfded3b	-0.12398764
29	0x3dadfa14	0.08494964
30	0x3d214c5e	0.03937947
31	0xbcd6f329	-0.026238995
32	0x3cdf1ad4	0.027234472
33	0x3b3f76bf	0.0029215065
34	0xbda0c039	-0.078491636
35	0x3e1a654b	0.15077703
36	0x3d15909c	0.036514863
37	0x3e0106f6	0.12600312
38	0x3cbfa6d0	0.023394972
39	0xbdf98c7d	-0.12184999
40	0xbc44d24a	-0.012013027
41	0x3e03e4d3	0.12880258
42	0x3d639f9d	0.05557214
43	0x3c19f9e8	0.009397961
44	0xbda522a4	-0.08063248
45	0x3dceb510	0.10093129
46	0xbd99b4f0	-0.07505214
47	0xbd878b23	-0.06618335
48	0x3b940ab0	0.0045178756
49	0x3d188353	0.037234616
50	0xbda8e88e	-0.08247481
51	0x3d4ba4f4	0.04971786
52	0x3c885ac8	0.01664485
53	0xbd7546f9	-0.059882138
54	0x3d89b6ee	0.06724344
55	0x3e237171	0.15961243
56	0xbc32bdd5	-0.010909517
57	0xbcfc4669	-0.030795293
58	0x3dc80005	0.09765629
59	0xbbc69042	-0.0060596773
60	0x3d878945	0.06617979
61	0x3d985f29	0.07440025
62	0xbe055a84	-0.1302281
63	0xbdaa7a08	-0.08324057
64	0x3d36ae6d	0.04459994
65	0x3e0db3de	0.13838145
66	0x3e1b7a17	0.15183292
67	0xbdc47054	-0.095917374
68	0xbe28d60f	-0.16487907
69	0xba80d6bb	-0.000982962
70	0x3d695aef	0.056971487
71	0xbd9ef18f	-0.077609174
72	0x3dff69c3	0.12471344
73	0x3db50a15	0.088398136
74	0x3db8f780	0.09031582
75	0xbe2b3525	-0.16719492
76	0xbab9d208	-0.0014176974
77	0xbe33c352	-0.17554978
78	0xbd991d93	-0.07476344
79	0x3d27b6fa	0.040945984
80	0xbe262bc2	-0.1622763
81	0xbce24c8c	-0.027624391
82	0x3e2088b2	0.15677145
83	0x3d207f78	0.039184064
84	0x3dec2cc9	0.115319796
85	0x3e286955	0.16446431
86	0xbd363464	-0.044483557
87	0x3dde81f6	0.10864632
88	0x3bb216a3	0.0054348274
89	0xbd9c0054	-0.0761725
90	0x3df9e098	0.12201041
91	0x3e1dc39e	0.15406653
92	0x3e1d8665	0.15383299
93	0xbcdc2767	-0.026874257
94	0x3da3bb02	0.07994653
95	0x3d6dcc85	0.058056373
96	0xbdf38926	-0.11891393
97	0xbe2b8033	-0.16748123
98	0x3d573463	0.052540194
99	0x3d483519	0.048878763
100	0x3d8a7322	0.06760241
101	0xbe13a0c2	-0.14416793
102	0xbce4eada	-0.027944017
103	0xbd7f40e8	-0.06231776
104	0x3cbe9624	0.023264952
105	0xbd504d67	-0.050855067
106	0x3e2fd337	0.17170416
107	0x3bf1934e	0.0073722964
108	0x3d94dee7	0.07269078
109	0x3e1f3746	0.15548429
110	0xbe1e04d7	-0.15431534
111	0x3bf58b8e	0.007493443
112	0x3de447aa	0.11146481
113	0xbe19e7ff	-0.15029906
114	0x3cc95d01	0.02458048
115	0xbda836c3	-0.0821357
116	0x3e17ce81	0.14824869
117	0xbdbaae25	-0.09115247
118	0x3cf4c3b8	0.029878482
119	0xbd57bf18	-0.052672476
120	0x3aafe825	0.0013420625
121	0xbdde0776	-0.10841267
122	0xbdc54ed9	-0.096341796
123	0x3d45c766	0.048285864
124	0x3e2e4b8f	0.17021011
125	0xbde17543	-0.11008694
126	0xbe1d1917	-0.15341602
127	0xbd663d6c	-0.05621092
128	0x3cd0e8d7	0.025501652
129	0xbd2ce15e	-0.042207114
130	0xbdef3b50	-0.11681235
131	0x3e24e732	0.16103819
132	0xbdbcaa9b	-0.09212228
133	0x3cde754c	0.02715554
134	0x3dcd2154	0.100161225
135	0xbd30322c	-0.043016598
136	0x3dfc62da	0.12323542
137	0x3d9bf4a2	0.076150194
138	0xbdba5d7b	-0.09099861
139	0xbd94f2ba	-0.07272859
140	0x3d0f4ec3	0.034987222
141	0xbd25362a	-0.040334858
142	0xbe33bdfb	-0.1755294
143	0x3e1117d4	0.14169246
144	0x3ce8cd1c	0.028418116
145	0xbe333fd5	-0.17504819
146	0x3ba4778c	0.005019134
147	0xbbf417d9	-0.007449132
148	0x3dcf95bd	0.10135982
149	0xbcdfccc5	-0.027319321
150	0x3e0a6a7d	0.13517185
151	0x3c5db1b8	0.013531141
152	0xbda2db1c	-0.07951948
153	0x3e0a157b	0.13484757
154	0x3db23311	0.087011464
155	0x3de4fbca	0.111808375
156	0xbd0d80f9	-0.034546826
157	0x3d7c3a03	0.06157876
158	0x3dcfa393	0.10138621
159	0xbd27fcdd	-0.041012634
160	0xbe129e38	-0.14318168
161	0xbe288232	-0.16455916
162	0x3e20420f	0.156502
163	0xbe059029	-0.13043274
164	0x3e2388b3	0.15970115
165	0x3d5889e3	0.052865874
166	0x3aab9675	0.0013091104
167	0xbd962d8e	-0.073329076
168	0xbe03be97	-0.12865673
169	0xbdff3f34	-0.12463227
170	0xbcbffc8a	-0.02343585
171	0xbe296b1f	-0.1654477
172	0xbe166402	-0.14686587
173	0xbdcabf1c	-0.098997325
174	0xbdf94350	-0.12171042
175	0x3beb4964	0.0071803797
176	0xbdd8d2e4	-0.10587099
177	0xbdb266aa	-0.08710988
178	0x3d03b5e4	0.032155886
179	0x3dbca2ec	0.092107624
180	0xbdabaf54	-0.083830506
181	0x3d39befe	0.04534816
182	0xbe21e365	-0.158094
183	0xbd24a7b0	-0.04019898
184	0x3e2eefb4	0.17083627
185	0x3d72edb3	0.05930872
186	0x3c9962bc	0.018723838
187	0x3dc88466	0.09790878
188	0x3dbee5dd	0.09321187
189	0xbd581a7e	-0.05275964
190	0x3e1e2838	0.1544503
191	0x3d6bad77	0.057538476
192	0x3dee52f8	0.11636919
193	0x3cdaa702	0.026690964
194	0x3cec417b	0.028839817
195	0xbe1d7ee6	-0.15380439
196	0x3e031d2d	0.12804098
197	0xbe226b8b	-0.15861337
198	0x3e239243	0.15973763
199	0x3c72cee3	0.014819833
200	0x3e2d2b60	0.16911077
201	0x3d88e36f	0.066840045
202	0x3d67b73f	0.05657124
203	0x3d40b5d4	0.047048405
204	0xbcf47fbe	-0.029846068
205	0x3a0430db	0.00050426804
206	0x3dad215b	0.08453628
207	0xbdfe3903	-0.12413218
208	0xbe2fd700	-0.1717186
209	0xbdd437d0	-0.10362208
210	0xbc022c28	-0.007945098
211	0xbdbae9c1	-0.09126616
212	0x3e18c450	0.14918637
213	0xbda62a57	-0.081135444
214	0x3dfa6f03	0.12228205
215	0x3da56fba	0.08077951
216	0xbe111799	-0.14169158
217	0xbd98ac34	-0.0745472
218	0x3d442dfb	0.047895413
219	0x3e0c288d	0.13687344
220	0xbcd76ebf	-0.026297925
221	0x3e12f25e	0.14350268
222	0x3d5d01e7	0.053956892
223	0xbe29f7c7	-0.16598426
224	0x3e19397e	0.14963338
225	0xbcfc4864	-0.030796237
226	0xbe0bc317	-0.1364864
227	0x3e1ceb73	0.15324192
228	0xbd9937aa	-0.0748132
229	0x3c53eb6a	0.012934545
230	0xbd41240f	-0.04715353
231	0x3cea2ae3	0.028584903
232	0xbdb6dcbe	-0.08928822
233	0xbccfb1de	-0.025353368
234	0xbdb2ceeb	-0.08730873
235	0x3e1a3809	0.15060438
236	0xbcf9ccaf	-0.030493109
237	0x3d6bfd6a	0.05761472
238	0x3d9d1ecf	0.07671892
239	0xbd9bb3fe	-0.0760269
240	0xbe15d136	-0.14630589
241	0xbdfc0407	-0.12305456
242	0x3cdaf206	0.026726734
243	0x3e093439	0.13398828
244	0x3bf36528	0.0074278302
245	0xbdb8097d	-0.08986185
246	0xbca195a5	-0.019724676
247	0x3d0dcff0	0.034622133
248	0xbc44cd8d	-0.012011898
249	0xbdce4fac	-0.1007379
250	0x3c46597e	0.012106298
251	0xbdd7d167	-0.10537987
252	0x3c9402a5	0.018067667
253	0x3daeaecd	0.08529434
254	0x3dca4361	0.09876133
255	0x3d4fb5a3	0.05071033

neural_ode_gnn.encoder.3.bias f4 [64]
0	0xbceeb4a2	-0.029138867
1	0x3db878fc	0.09007451
2	0xbdf4dd9e	-0.119563326
3	0x3c2137d7	0.009839973
4	0x3de1785b	0.11009284
5	0x3e18e25c	0.14930099
6	0xbd4e8701	-0.05042172
7	0x3d222916	0.039589964
8	0x3ddfbf04	0.10925105
9	0xbd8746bd	-0.06605289
10	0xbdfbcded	-0.122951366
11	0x3d093075	0.033493478
12	0xbd00db3c	-0.03145908
13	0xbe1e436c	-0.15455407
14	0x3e321e32	0.17394331
15	0x3d929c6c	0.07158741
16	0x3d81e29d	0.06342051
17	0xbca6bd93	-0.020354068
18	0x3daa16b9	0.08305115
19	0x3deaa80f	0.11457836
20	0x3d1fe71c	0.039038762
21	0x3c7012d7	0.014652929
22	0x3e2a3f27	0.16625653
23	0xbdb94a94	-0.09047428
24	0x3ded7abd	0.11595676
25	0xbe071bfe	-0.13194272
26	0x3d0d02bb	0.034426432
27	0x3e0d60f1	0.13806511
28	0xbd3de6fe	-0.04636287
29	0xbdf95ebd	-0.12176273
30	0xbd49858b	-0.049199622
31	0x3e14ad5c	0.14519256
32	0xbd3edaf2	-0.04659552
33	0xbe323c6f	-0.17405866
34	0xbd98148e	-0.074257955
35	0x3c34f19f	0.011043935
36	0x3dc3c72e	0.09559475
37	0xbe28de70	-0.16491103
38	0xbd5912cc	-0.05299644
39	0xbd90d635	-0.07072107
40	0x3db8d20d	0.09024439
41	0xbdeff790	-0.11717141
42	0x3d948c9a	0.0725338
43	0x3ddcb414	0.10776535
44	0x3d3e2f4a	0.046431817
45	0xbc63724e	-0.013882233
46	0x3e25eeca	0.16204372
47	0xbddbfef4	-0.10741988
48	0x3daa1fd8	0.08306855
49	0xbdf287b6	-0.11842291
50	0xbd8789ac	-0.06618056
51	0x3d75d072	0.060013242
52	0xbd48d415	-0.049030382
53	0x3e13ffef	0.144531
54	0x3e2b3a48	0.16721451
55	0xbcb780f3	-0.022400355
56	0xbdb43c13	-0.08800521
57	0x3d9285f4	0.07154456
58	0xbdcd329d	-0.10019419
59	0x3db8fbf8	0.09032434
60	0xbdf7eaec	-0.12105355
61	0x3dc7a12c	0.09747538
62	0xbd946984	-0.07246688
63	0xbab13af0	-0.0013521593

neural_ode_gnn.ode_func.adj_matrix f4 [162, 162]
0	0x00000000	0.0
1	0x3f800000	1.0
2	0x3f800000	1.0
3	0x3f800000	1.0
4	0x3f800000	1.0
5	0x3f800000	1.0
6	0x3f800000	1.0
7	0x3f800000	1.0
8	0x3f800000	1.0
9	0x3f800000	1.0
10	0x3f800000	1.0
11	0x3f800000	1.0
12	0x3f800000	1.0
13	0x3f800000	1.0
14	0x3f800000	1.0
15	0x3f800000	1.0
16	0x3f800000	1.0
17	0x3f800000	1.0
18	0x3f800000	1.0
19	0x3f800000	1.0
20	0x3f800000	1.0
21	0x3f800000	1.0
22	0x3f800000	1.0
23	0x3f800000	1.0
24	0x3f800000	1.0
25	0x3f800000	1.0
26	0x3f800000	1.0
27	0x3f800000	1.0
28	0x3f800000	1.0
29	0x3f800000	1.0
30	0x3f800000	1.0
31	0x3f800000	1.0
32	0x3f800000	1.0
33	0x3f800000	1.0
34	0x3f800000	1.0
35	0x3f800000	1.0
36	0x3f800000	1.0
37	0x3f800000	1.0
38	0x3f800000	1.0
39	0x3f800000	1.0
40	0x3f800000	1.0
41	0x3f800000	1.0
42	0x3f800000	1.0
43	0x3f800000	1.0
44	0x3f800000	1.0
45	0x3f800000	1.0
46	0x3f800000	1.0
47	0x3f800000	1.0
48	0x3f800000	1.0
49	0x3f800000	1.0
50	0x3f800000	1.0
51	0x3f800000	1.0
52	0x3f800000	1.0
53	0x3f800000	1.0
54	0x3f800000	1.0
55	0x3f800000	1.0
56	0x3f800000	1.0
57	0x3f800000	1.0
58	0x3f800000	1.0
59	0x3f800000	1.0
60	0x3f800000	1.0
61	0x3f800000	1.0
62	0x3f800000	1.0
63	0x3f800000	1.0
64	0x3f800000	1.0
65	0x3f800000	1.0
66	0x3f800000	1.0
67	0x3f800000	1.0
68	0x3f800000	1.0
69	0x3f800000	1.0
70	0x3f800000	1.0
71	0x3f800000	1.0
72	0x3f800000	1.0
73	0x3f800000	1.0
74	0x3f800000	1.0
75	0x3f800000	1.0
76	0x3f800000	1.0
77	0x3f800000	1.0
78	0x3f800000	1.0
79	0x3f800000	1.0
80	0x3f800000	1.0
81	0x3f800000	1.0
82	0x3f800000	1.0
83	0x3f800000	1.0
84	0x3f800000	1.0
85	0x3f800000	1.0
86	0x3f800000	1.0
87	0x3f800000	1.0
88	0x3f800000	1.0
89	0x3f800000	1.0
90	0x3f800000	1.0
91	0x3f800000	1.0
92	0x3f800000	1.0
93	0x3f800000	1.0
94	0x3f800000	1.0
95	0x3f800000	1.0
96	0x3f800000	1.0
97	0x3f800000	1.0
98	0x3f800000	1.0
99	0x3f800000	1.0
100	0x3f800000	1.0
101	0x3f800000	1.0
102	0x3f800000	1.0
103	0x3f800000	1.0
104	0x3f800000	1.0
105	0x3f800000	1.0
106	0x3f800000	1.0
107	0x3f800000	1.0
108	0x3f800000	1.0
109	0x3f800000	1.0
110	0x3f800000	1.0
111	0x3f800000	1.0
112	0x3f800000	1.0
113	0x3f800000	1.0
114	0x3f800000	1.0
115	0x3f800000	1.0
116	0x3f800000	1.0
117	0x3f800000	1.0
118	0x3f800000	1.0
119	0x3f800000	1.0
120	0x3f800000	1.0
121	0x3f800000	1.0
122	0x3f800000	1.0
123	0x3f800000	1.0
124	0x3f800000	1.0
125	0x3f800000	1.0
126	0x3f800000	1.0
127	0x3f800000	1.0
128	0x3f800000	1.0
129	0x3f800000	1.0
130	0x3f800000	1.0
131	0x3f800000	1.0
132	0x3f800000	1.0
133	0x3f800000	1.0
134	0x3f800000	1.0
135	0x3f800000	1.0
136	0x3f800000	1.0
137	0x3f800000	1.0
138	0x3f800000	1.0
139	0x3f800000	1.0
140	0x3f800000	1.0
141	0x3f800000	1.0
142	0x3f800000	1.0
143	0x3f800000	1.0
144	0x3f800000	1.0
145	0x3f800000	1.0
146	0x3f800000	1.0
147	0x3f800000	1.0
148	0x3f800000	1.0
149	0x3f800000	1.0
150	0x3f800000	1.0
151	0x3f800000	1.0
152	0x3f800000	1.0
153	0x3f800000	1.0
154	0x3f800000	1.0
155	0x3f800000	1.0
156	0x3f800000	1.0
157	0x3f800000	1.0
158	0x3f800000	1.0
159	0x3f800000	1.0
160	0x3f800000	1.0
161	0x3f800000	1.0
162	0x3f800000	1.0
163	0x00000000	0.0
164	0x3f800000	1.0
165	0x3f800000	1.0
166	0x3f800000	1.0
167	0x3f800000	1.0
168	0x3f800000	1.0
169	0x3f800000	1.0
170	0x3f800000	1.0
171	0x3f800000	1.0
172	0x3f800000	1.0
173	0x3f800000	1.0
174	0x3f800000	1.0
175	0x3f800000	1.0
176	0x3f800000	1.0
177	0x3f800000	1.0
178	0x3f800000	1.0
179	0x3f800000	1.0
180	0x3f800000	1.0
181	0x3f800000	1.0
182	0x3f800000	1.0
183	0x3f800000	1.0
184	0x3f800000	1.0
185	0x3f800000	1.0
186	0x3f800000	1.0
187	0x3f800000	1.0
188	0x3f800000	1.0
189	0x3f800000	1.0
190	0x3f800000	1.0
191	0x3f800000	1.0
192	0x3f800000	1.0
193	0x3f800000	1.0
194	0x3f800000	1.0
195	0x3f800000	1.0
196	0x3f800000	1.0
197	0x3f800000	1.0
198	0x3f800000	1.0
199	0x3f800000	1.0
200	0x3f800000	1.0
201	0x3f800000	1.0
202	0x3f800000	1.0
203	0x3f800000	1.0
204	0x3f800000	1.0
205	0x3f800000	1.0
206	0x3f800000	1.0
207	0x3f800000	1.0
208	0x3f800000	1.0
209	0x3f800000	1.0
210	0x3f800000	1.0
211	0x3f800000	1.0
212	0x3f800000	1.0
213	0x3f800000	1.0
214	0x3f800000	1.0
215	0x3f800000	1.0
216	0x3f800000	1.0
217	0x3f800000	1.0
218	0x3f800000	1.0
219	0x3f800000	1.0
220	0x3f800000	1.0
221	0x3f800000	1.0
222	0x3f800000	1.0
223	0x3f800000	1.0
224	0x3f800000	1.0
225	0x3f800000	1.0
226	0x3f800000	1.0
227	0x3f800000	1.0
228	0x3f800000	1.0
229	0x3f800000	1.0
230	0x3f800000	1.0
231	0x3f800000	1.0
232	0x3f800000	1.0
233	0x3f800000	1.0
234	0x3f800000	1.0
235	0x3f800000	1.0
236	0x3f800000	1.0
237	0x3f800000	1.0
238	0x3f800000	1.0
239	0x3f800000	1.0
240	0x3f800000	1.0
241	0x3f800000	1.0
242	0x3f800000	1.0
243	0x3f800000	1.0
244	0x3f800000	1.0
245	0x3f800000	1.0
246	0x3f800000	1.0
247	0x3f800000	1.0
248	0x3f800000	1.0
249	0x3f800000	1.0
250	0x3f800000	1.0
251	0x3f800000	1.0
252	0x3f800000	1.0
253	0x3f800000	1.0
254	0x3f800000	1.0
255	0x3f800000	1.0

neural_ode_gnn.ode_func.gnn_layer.0.weight f4 [32, 64]
0	0xbcde1913	-0.027111566
1	0xbce391d1	-0.027779492
2	0x3df0e388	0.11762148
3	0xbd63999e	-0.055566423
4	0x3d5f4c3f	0.054516073
5	0xbdb717e5	-0.089401044
6	0x3d253ddf	0.040342208
7	0xbbf20cdd	-0.0073867873
8	0x3d18b15b	0.037278514
9	0xbd16c9b6	-0.03681346
10	0xbd6beacc	-0.057596967
11	0xbd47e60e	-0.04880338
12	0x3db6a93d	0.089189984
13	0xbd04000c	-0.032226607
14	0xbcca224a	-0.024674553
15	0xbb3ae29c	-0.0028516417
16	0xbd639288	-0.055559665
17	0xbdcf3882	-0.101182
18	0x3d79d426	0.060993336
19	0x3c170060	0.009216398
20	0x3dd6deb6	0.104916975
21	0x3dbe807d	0.09301851
22	0x3def8e77	0.11697095
23	0xbd0d6095	-0.034515936
24	0x3d216c35	0.039409835
25	0xbc27d08f	-0.010242595
26	0x3dc51d1d	0.096246935
27	0xbc505a42	-0.012716832
28	0xbdddd8ec	-0.1083239
29	0x3c5f67f0	0.0136356205
30	0xbdcc72ba	-0.0998282
31	0xbd212576	-0.039342366
32	0xbdee2aa1	-0.116292246
33	0x3da959e3	0.08269098
34	0xbc994263	-0.018708413
35	0xbdfea952	-0.12434639
36	0xbd7263d5	-0.05917724
37	0x3d979456	0.0740134
38	0x3c5da13b	0.01352721
39	0xbd8cff68	-0.068846524
40	0xbd99c1d0	-0.0750767
41	0xbd5882e1	-0.05285919
42	0xbda6ec5c	-0.08150551
43	0xbb4a4879	-0.003086595
44	0x3d1068c8	0.035256177
45	0xbd88df64	-0.066832334
46	0xbc61b1e0	-0.013775319
47	0x3dc2a41a	0.09503956
48	0xbc7e506f	-0.015522107
49	0xbdd67211	-0.10470975
50	0x3da38a14	0.07985321
51	0xbdb9e7fa	-0.09077449
52	0x3ded449e	0.11585353
53	0x3d9248cf	0.071427934
54	0x3daa284b	0.083084665
55	0xbcc5759f	-0.024103938
56	0xbcd3c3d5	-0.025850216
57	0x3d13f710	0.03612429
58	0x3d3f477f	0.046699043
59	0xbddf44de	-0.10901807
60	0x3d59cf6a	0.05317632
61	0xbd8d3861	-0.06895519
62	0x3dfb0b59	0.12258024
63	0xbd8bd4fd	-0.06827734
64	0xbd684bae	-0.0567128
65	0xbd0adc5d	-0.03390156
66	0xbd10fe98	-0.03539905
67	0xbc5e48c1	-0.013567151
68	0xbca6e7ac	-0.020374142
69	0xbdfb355b	-0.12266036
70	0x3d975776	0.07389729
71	0x3cf5dec1	0.030013444
72	0x3d30d450	0.043171227
73	0xbd8c76d8	-0.06858605
74	0xbddcb070	-0.1077584
75	0x3d1a636e	0.03769248
76	0x3d922115	0.07135216
77	0xbc366dd6	-0.011134585
78	0x3d7d15e7	0.061788466
79	0x3db0019c	0.08594057
80	0x3d7de403	0.061985027
81	0x3d75a727	0.059973862
82	0xbcaa17a3	-0.020763224
83	0x3de5e3bd	0.11225078
84	0x3cb248ee	0.021763291
85	0xbde77c9e	-0.11303066
86	0xbd9387ce	-0.07203637
87	0x3d259190	0.040422022
88	0x3d76c7c4	0.060249105
89	0x3d76be24	0.060239926
90	0x3cc407f9	0.023929583
91	0xbdc4cbe7	-0.09609204
92	0x3dd7ac92	0.10530962
93	0xbde31614	-0.110881954
94	0xbda5cf95	-0.08096234
95	0xbd9f2a16	-0.07771699
96	0x3d641962	0.05568827
97	0xbd510da9	-0.051038418
98	0xbdd90db5	-0.105983175
99	0xbc49faff	-0.012327909
100	0x3d2f7b89	0.04284242
101	0xbdd4fbf5	-0.103996195
102	0x3dfb96e4	0.122846395
103	0x3bf19481	0.0073724394
104	0x3d971b13	0.07378211
105	0xbdc5b402	-0.096534744
106	0x3dcafdf5	0.0991172
107	0xbd44ddde	-0.04806315
108	0xbd7720ab	-0.06033389
109	0x3daaf439	0.08347363
110	0xbcf12820	-0.029438078
111	0x3dc9e964	0.09858969
112	0xbdb2b446	-0.08725791
113	0x3da27801	0.07933045
114	0xbd8f58d1	-0.06999362
115	0xbdd419fe	-0.1035652
116	0x3ca97fb4	0.020690776
117	0x3de4b534	0.11167374
118	0x3dcc2143	0.09967282
119	0x3d002086	0.031281017
120	0x3dc32e39	0.09530301
121	0x3db15e65	0.086605825
122	0xbdbe0db5	-0.09279958
123	0x3d5261dd	0.05136286
124	0xbdabaecd	-0.0838295
125	0xbbb6c45d	-0.0055776075
126	0x3dcd5127	0.10025244
127	0x3c4d9030	0.012546584
128	0x3d9c0962	0.07618977
129	0x3ccf9c63	0.025343126
130	0x3c8a09f0	0.016850442
131	0xbb9ee4a7	-0.004849035
132	0xbc80e2c8	-0.015733138
133	0x3baf12ac	0.005342802
134	0xbdf91bd4	-0.12163511
135	0x3d994e86	0.0748568
136	0x3d4f3b24	0.05059351
137	0x3c33b88e	0.010969294
138	0xbd0419e0	-0.03225124
139	0x3c378453	0.011200982
140	0xbd638b30	-0.05555266
141	0xbdbcaff2	-0.092132464
142	0xbd97c685	-0.074109115
143	0x3d9166ba	0.07099672
144	0xbdfb11bb	-0.12259241
145	0x3db635eb	0.08897003
146	0xbcc9d0f0	-0.024635762
147	0xbd1ac270	-0.037783086
148	0x3cd5a3cb	0.02607908
149	0xbc4c48e0	-0.012468547
150	0x3d43e8ed	0.047829557
151	0x3df76264	0.120793134
152	0x3c89fa8d	0.016843105
153	0x3dfd66fe	0.1237316
154	0x3d71f7e7	0.05907431
155	0xbc030e84	-0.007999066
156	0xbd419949	-0.047265325
157	0x3de33718	0.11094493
158	0x3d0908f8	0.03345582
159	0x3dcbbec3	0.09948494
160	0x39befe25	0.00036428976
161	0xbd8d385d	-0.06895516
162	0xbd8bba83	-0.06822684
163	0xbddb2958	-0.10701245
164	0xbc89a60d	-0.016802812
165	0x3dc5a19b	0.096499644
166	0xbd5c9931	-0.053857032
167	0x3d9d0493	0.07666888
168	0x3d51f8df	0.051262733
169	0xbce85733	-0.028361892
170	0x3cde55c4	0.027140506
171	0x3dc78449	0.09742028
172	0x3daeb006	0.085296676
173	0x3de39d65	0.11114005
174	0xbd7c945b	-0.06166492
175	0xbde22e28	-0.1104396
176	0x3dac0aff	0.08400535
177	0x3d522fea	0.051315226
178	0xbd03f69b	-0.032217603
179	0x3c8c5efc	0.017135136
180	0xbd4d4223	-0.0501119
181	0xbd4e3b63	-0.050349604
182	0x3c6ae9e8	0.014337994
183	0xbd4ac5bd	-0.049504984
184	0x3c1a93de	0.009434668
185	0xbd5a5350	-0.05330211
186	0x3d4bd9e9	0.049768362
187	0xbcedf6be	-0.02904832
188	0xbdd3a5df	-0.10334372
189	0x3d531a59	0.0515388
190	0xbb84c3d7	-0.0040516662
191	0x3d828757	0.0637347
192	0x3db5fc77	0.088860445
193	0x3cf8d28c	0.030373834
194	0x3d4a5e62	0.049406417
195	0xbc98ab07	-0.01863624
196	0xbd47584c	-0.04866819
197	0x3d00a47a	0.031406857
198	0xbdef62a4	-0.11688736
199	0xbdc421fc	-0.095767945
200	0x3db984a2	0.09058501
201	0x3de2a334	0.11066285
202	0xbbb66959	-0.0055667576
203	0x3bf29604	0.007403137
204	0xbd9d88eb	-0.07692131
205	0x3da6e58a	0.0814925
206	0x3ced65bc	0.028979175
207	0xbd952ef5	-0.07284347
208	0xbbb95a06	-0.0056564836
209	0x3d0dbe5d	0.034605373
210	0x3dd32411	0.103096135
211	0x3dc1b615	0.094585575
212	0xbd352cce	-0.044232182
213	0xbcbf7728	-0.023372248
214	0x3d587d57	0.05285391
215	0x3de0c46e	0.10974966
216	0x3d9cbb40	0.076529026
217	0xbd11be6a	-0.035581984
218	0x3de2b073	0.11068811
219	0x3d7daee1	0.061934356
220	0x3dfb8433	0.122810744
221	0xbda77394	-0.08176342
222	0xbdbe87e9	-0.093032666
223	0xbd1ae9fe	-0.03782081
224	0x3db53a34	0.08848992
225	0xbd6ccc09	-0.05781177
226	0xbd82935b	-0.06375762
227	0xbdd9311d	-0.10605071
228	0x3b205b4a	0.0024468475
229	0xbcdc858b	-0.026919147
230	0x3dabb6bd	0.08384464
231	0xbd8743fd	-0.066047646
232	0x3dbdcf4e	0.09268056
233	0xbc498ed4	-0.012302119
234	0x3c025d3d	0.0079568
235	0xbda038e3	-0.0782335
236	0x3d544380	0.051822186
237	0xbdf93881	-0.121689804
238	0xbde539e8	-0.11192685
239	0xbdf7de2f	-0.12102925
240	0x3bc59e16	0.006030808
241	0xbd7545d6	-0.059881054
242	0xbd4893ce	-0.048969083
243	0xbc20b740	-0.009809315
244	0xbdfe24c7	-0.124093585
245	0xbdcc7be8	-0.09984571
246	0x3dcbb2a4	0.09946182
247	0xbd310d46	-0.04322555
248	0x3c7779c7	0.015104718
249	0x3dfedf50	0.12444937
250	0xbdc3e952	-0.09565987
251	0x3dad899b	0.08473512
252	0x3cdc3708	0.02688171
253	0xbbd215cb	-0.0064112893
254	0xbdde8621	-0.10865427
255	0xbd753b75	-0.059871156

neural_ode_gnn.ode_func.gnn_layer.0.bias f4 [32]
0	0xbcce435f	-0.02517861
1	0x3dd44068	0.10363847
2	0xbd4e4f2c	-0.050368473
3	0x3d431045	0.047622938
4	0x3ccf70aa	0.025322277
5	0xbc9cbacc	-0.01913204
6	0x3d0ddaf3	0.034632634
7	0xbdd212b4	-0.102574736
8	0xbd98963b	-0.07450529
9	0xbd525ce3	-0.051358115
10	0xbd7dd687	-0.061972167
11	0x3c9a1a0e	0.018811252
12	0x3daef869	0.08543474
13	0xbc8911b0	-0.016732067
14	0xbdfced00	-0.12349892
15	0xbd808404	-0.0627518
16	0x3d37dd6a	0.04488889
17	0x3dfc8405	0.12329868
18	0xbd307d27	-0.043088105
19	0xbd5e0b3a	-0.054209925
20	0x3dbb13e5	0.09134654
21	0xbdf00e0b	-0.117214285
22	0xbb609353	-0.00342675
23	0xbde4197e	-0.11137675
24	0xbd603669	-0.05473939
25	0x3df9ff8d	0.122069456
26	0xbd89089e	-0.06691097
27	0x3db72c78	0.089440286
28	0x3d76f5a9	0.060292874
29	0x3d7bd527	0.061482575
30	0xbdd3aad8	-0.1033532
31	0xbd737c9f	-0.05944502

neural_ode_gnn.ode_func.gnn_layer.1.weight f4 [32]
0	0x3f7ff7de	0.9998759
1	0x3f7f7c6f	0.99799246
2	0x3f80414f	1.0019931
3	0x3f802304	1.0010686
4	0x3f7fb768	0.9988923
5	0x3f803cb5	1.0018526
6	0x3f7fc61f	0.99911684
7	0x3f7f8467	0.99811405
8	0x3f7f93ee	0.998351
9	0x3f804589	1.002122
10	0x3f7f7d2a	0.9980036
11	0x3f8018bd	1.000755
12	0x3f80477c	1.0021815
13	0x3f804549	1.0021144
14	0x3f7f6c76	0.99774873
15	0x3f7f7771	0.9979163
16	0x3f803550	1.001627
17	0x3f804090	1.0019703
18	0x3f802423	1.0011028
19	0x3f804d24	1.0023541
20	0x3f7fa986	0.9986805
21	0x3f7f7cf0	0.99800014
22	0x3f7fe675	0.99961025
23	0x3f7f7d57	0.9980063
24	0x3f7f7b70	0.99797726
25	0x3f802f88	1.0014505
26	0x3f8042a6	1.002034
27	0x3f802e51	1.0014135
28	0x3f7f87a9	0.99816376
29	0x3f804914	1.0022302
30	0x3f7f7510	0.99788
31	0x3f7f6fbc	0.9977987

neural_ode_gnn.ode_func.gnn_layer.1.bias f4 [32]
0	0xb90378e9	-0.00012538176
1	0x39fc1139	0.00048078017
2	0x3b03bf8f	0.0020103191
3	0x3a99570d	0.0011698917
4	0xbabc40d6	-0.0014362584
5	0x3aed301b	0.0018096002
6	0xba81611b	-0.0009870859
7	0xbabe741b	-0.0014530452
8	0xbae06c57	-0.0017122132
9	0x3b0efc46	0.0021817847
10	0xba35ef78	-0.00069402857
11	0x3a9c2c31	0.0011915026
12	0x3b0ecaa2	0.002178826
13	0x3b0b5a5c	0.0021263575
14	0xbb11f282	-0.002226979
15	0xbb062861	-0.0020470845
16	0x3ad2afee	0.001607416
17	0x3af77f84	0.0018882607
18	0x3aa3acc0	0.0012487397
19	0x3b0a470f	0.0021099483
20	0xbaa451bd	-0.0012536567
21	0xbb037b5e	-0.0020062546
22	0xb9d726a0	-0.00041036773
23	0xbb14b6e3	-0.0022692017
24	0xbb04c568	-0.0020259265
25	0x3a8996b2	0.0010497181
26	0x3b049a12	0.0020233435
27	0x3ac6179a	0.0015113235
28	0xbaf0caf0	-0.0018371027
29	0x3b0c4237	0.0021401772
30	0xbb00df21	-0.0019664245
31	0xbb15543c	-0.0022785803

neural_ode_gnn.ode_func.gnn_layer.3.weight f4 [32, 32]
0	0x3cf5c1c3	0.02999962
1	0x3d6e60c8	0.058197767
2	0x3dbaf9c8	0.09129673
3	0x3e0dae32	0.13835981
4	0x3e050765	0.12991102
5	0xbdf2a25c	-0.11847374
6	0x3e2d283c	0.1690988
7	0xbe19ffa8	-0.15038931
8	0x3d7a98e0	0.06118095
9	0x3d857e34	0.06518212
10	0x3de9cbbf	0.114158146
11	0xbe113a73	-0.14182453
12	0x3ce51186	0.027962457
13	0xbd6c2951	-0.05765659
14	0x3e229f67	0.1588112
15	0x3daef5a0	0.08542943
16	0xbdcbd5be	-0.099528775
17	0x3d37e0be	0.044892065
18	0xbe2e18f3	-0.17001705
19	0xbe0be92e	-0.1366317
20	0xbdeb4e6f	-0.114895694
21	0xbdf51d4b	-0.11968478
22	0x3e2876b7	0.16451536
23	0x3dc3e8c0	0.09565878
24	0x3e02f7a3	0.12789778
25	0x3e1926ec	0.14956254
26	0x3cb40079	0.021972882
27	0x3d5bc1f0	0.05365175
28	0x3e256a42	0.16153815
29	0xbdf5393c	-0.11973807
30	0x3cf8ab85	0.030355224
31	0x3e23d67b	0.15999787
32	0x3e0ac428	0.1355139
33	0x3d2a865f	0.041632053
34	0x3cec435b	0.028840711
35	0xbe2050a2	-0.15655759
36	0xbda778dc	-0.08177349
37	0xbd67bc2b	-0.056575935
38	0x3e2c1ab8	0.16807067
39	0xbe12a8ee	-0.14322254
40	0xbcf80d66	-0.030279826
41	0x3db9f3d0	0.09079707
42	0xbd10eea3	-0.03538383
43	0x3df5e560	0.120066404
44	0x3d26e4d7	0.040745582
45	0x3d8ae3ef	0.06781756
46	0xbc950869	-0.018192487
47	0x3cfbc3a7	0.030732943
48	0x3df86625	0.121288575
49	0x3ca51f00	0.020156384
50	0xbdaa37b1	-0.083114035
51	0xbe2b4e06	-0.16728982
52	0x3e0b5ad2	0.13608864
53	0xbdff842b	-0.12476381
54	0x3c4ef855	0.012632449
55	0xbe2ee184	-0.17078215
56	0x3d8416b7	0.06449645
57	0x3d619d11	0.05508143
58	0x3e10eff9	0.14154042
59	0x3bdfd94b	0.0068313233
60	0xbe15b80c	-0.1462099
61	0xbe0cc455	-0.1374677
62	0xbd5d5e07	-0.05404475
63	0x3d6f7da0	0.058469415
64	0x3e1af929	0.1513411
65	0xbe1fda24	-0.15610558
66	0xbdd54273	-0.10413065
67	0xbdea008f	-0.11425888
68	0x3de17d55	0.11010233
69	0xbe1b2e86	-0.15154466
70	0x3d0f7c84	0.035030857
71	0xbdea8179	-0.11450476
72	0xbdbeaa47	-0.093098216
73	0xbddd6c4e	-0.10811673
74	0x3dab41a5	0.0836213
75	0xbe00ce99	-0.12578811
76	0xbdb23371	-0.08701218
77	0xbdb423c4	-0.08795884
78	0xbe135031	-0.1438606
79	0xbdaa8c24	-0.08327511
80	0xbe1abf7e	-0.15112111
81	0x3b05489b	0.0020337466
82	0xbd68d907	-0.0568476
83	0xbe34bfb6	-0.17651257
84	0x3beb61d2	0.007183292
85	0x3e240c00	0.16020203
86	0x3df59f7d	0.119933106
87	0x3e3024ed	0.17201586
88	0x3b715404	0.003682376
89	0x3d828a73	0.06374063
90	0x3cbd1bbd	0.023084516
91	0xbdacfde6	-0.08446865
92	0xbe119f83	-0.14221005
93	0xbe28cc9f	-0.16484307
94	0x3e22c3d2	0.15895012
95	0xbcf08b32	-0.029363248
96	0xbc5ed8a9	-0.0136014605
97	0x3da13ad4	0.07872549
98	0x3e151d50	0.14561963
99	0xbd857ad2	-0.06517567
100	0x3d663f0c	0.05621247
101	0xbddc71ad	-0.107638694
102	0x3c93474d	0.017978335
103	0x3e288554	0.1645711
104	0xbdb4eddd	-0.08834431
105	0x3d538ad1	0.051646058
106	0x3ddfe7aa	0.10932858
107	0xbbe35e99	-0.006938767
108	0xbd22c77f	-0.039741036
109	0xbd0c95f5	-0.034322698
110	0x3e18f55d	0.14937349
111	0xbe06cfd7	-0.13165222
112	0x3e2991c0	0.16559505
113	0xbca36dcb	-0.019949814
114	0xbe29d124	-0.16583687
115	0x3e2cde2d	0.16881628
116	0xbd5833a8	-0.05278364
117	0xbe356316	-0.1771358
118	0x3e04c64d	0.1296627
119	0x3d0a55c1	0.033773188
120	0x3db63dcf	0.08898508
121	0xbdd78e68	-0.10525209
122	0x3e135c02	0.14390567
123	0xbc67d082	-0.014148833
124	0xbde3831b	-0.11108991
125	0xbb97f85f	-0.0046377624
126	0xbc4a511d	-0.0123484405
127	0xbcb684f4	-0.022280194
128	0xbd8114aa	-0.063027695
129	0x3d96fc88	0.07372385
130	0x3a9e2903	0.0012066666
131	0xbd362334	-0.044467166
132	0x3e16962a	0.1470572
133	0x3d3aea5a	0.04563365
134	0xbe12f077	-0.14349543
135	0x3d0ae0e9	0.033905897
136	0xbd1a9036	-0.037735187
137	0x3e0f9a43	0.1402369
138	0xbe2c2246	-0.1680995
139	0x3e240cbc	0.16020483
140	0xbe1b9cb5	-0.15196498
141	0xbe1d5a9f	-0.153666
142	0x3e299098	0.16559064
143	0x3e180054	0.14843875
144	0x3e09e919	0.13467826
145	0x3d874ffd	0.066070534
146	0x3dbd0ae0	0.0923059
147	0xbe1f7b82	-0.15574458
148	0xbd0b8ca1	-0.03406966
149	0x3e0bcd74	0.13652593
150	0xbd991339	-0.074743696
151	0xbe19dcb1	-0.15025593
152	0xbd07ad11	-0.033124033
153	0x3cbbede4	0.022940584
154	0xbe2293ab	-0.15876643
155	0x3d809401	0.062782295
156	0xbe2365b7	-0.1595677
157	0xbda3a7c4	-0.07990983
158	0xbdf44124	-0.11926487
159	0xbd1f70dc	-0.03892599
160	0x3d96edbf	0.07369565
161	0xbd8ed194	-0.069735676
162	0x3e11c0d5	0.14233716
163	0x3c945294	0.018105783
164	0x3d0b3e56	0.033994995
165	0xbdcf6f13	-0.101286076
166	0xbcebc29b	-0.028779319
167	0x3cca9090	0.024727136
168	0xbe2cbd79	-0.16869153
169	0x3dd7483e	0.10511826
170	0x3d9fef3d	0.07809303
171	0x3e034f87	0.12823306
172	0x3cc68e71	0.024237843
173	0x3bb465f3	0.0055053174
174	0xbd8fb0e2	-0.070161596
175	0x3e33a665	0.17543943
176	0x3da0419f	0.07825016
177	0x3c7d5f70	0.015464649
178	0xbe30faf3	-0.1728323
179	0x3ca298cf	0.019848255
180	0xbd974554	-0.0738627
181	0xbbf5e0e8	-0.0075036176
182	0x3e220950	0.15823865
183	0xbc2f7665	-0.01070938
184	0x3d88388d	0.06651411
185	0x3df644b6	0.12024824
186	0x3dad05f6	0.084484026
187	0xbb078330	-0.002067756
188	0xbde52831	-0.111893065
189	0x3d9f36b8	0.07774109
190	0x3c36eba2	0.011164578
191	0xbd4011b9	-0.0468919
192	0x3bbb44ba	0.00571498
193	0x3dc6917b	0.09695717
194	0x3dffb354	0.12485376
195	0xbd659ad2	-0.05605585
196	0x3d0b1b38	0.033961505
197	0xbdf035fe	-0.11729048
198	0xbc7010cb	-0.014652441
199	0x3d9c00d3	0.07617345
200	0x3d52b1dc	0.05143915
201	0xbc81b03a	-0.015831102
202	0x3e32c148	0.17456543
203	0x3bdbb2a8	0.006704647
204	0x3da89c33	0.08232918
205	0xbe1a7bd4	-0.15086299
206	0xbd209073	-0.039200258
207	0xbdb1f3cc	-0.08689079
208	0xbe2f7bd3	-0.17137079
209	0x3e012f9e	0.12615821
210	0x3de482b0	0.11157739
211	0x3d9bdbca	0.07610281
212	0x3e1be666	0.15224609
213	0x3de34108	0.11096388
214	0x3de8cf81	0.11367703
215	0x3dbe4fb8	0.09292549
216	0x3cfb5048	0.03067793
217	0x3e02faeb	0.1279103
218	0xbdb77d96	-0.089595005
219	0xbe356e2e	-0.17717811
220	0xbd77bc81	-0.060482506
221	0xbd5f7330	-0.05455321
222	0xbdf3b5ef	-0.118999355
223	0x3e0b3ae5	0.13596685
224	0xbbd47f8b	-0.006484931
225	0x3e0a0c25	0.13481195
226	0xbe234f95	-0.15948327
227	0x3d16acd4	0.036785915
228	0x3cc4d724	0.024028368
229	0xbdf1288c	-0.11775312
230	0xbd562cf5	-0.052288968
231	0x3e1dfbef	0.15428136
232	0x3c9b5299	0.018960284
233	0x3d97eb10	0.074178815
234	0x3d96989f	0.07353329
235	0x3e0305aa	0.1279513
236	0xbe2cef3f	-0.1688814
237	0xbd0ec6c0	-0.03485751
238	0x3e143bc3	0.14475922
239	0x3c8ed0a2	0.017433468
240	0x3d867cf2	0.065668
241	0x3d1abca0	0.037777543
242	0xbc2b39ac	-0.010450762
243	0xbe051a28	-0.12998259
244	0xbd76fdf1	-0.06030077
245	0xbc2e0091	-0.010620252
246	0xbe30612e	-0.17224571
247	0x3d8bd7ce	0.06828271
248	0x3e2e200c	0.17004412
249	0xbd4a53e6	-0.049396418
250	0x3b58e40c	0.003309491
251	0xbdf7a7c6	-0.12092547
252	0x3d8223eb	0.06354507
253	0x3e130514	0.14357406
254	0x3dbb952a	0.0915931
255	0x3d22ca43	0.039743673

neural_ode_gnn.ode_func.gnn_layer.3.bias f4 [32]
0	0xbda09d14	-0.0784246
1	0xbe1e13f8	-0.15437305
2	0xbd625b4f	-0.05526286
3	0x3e2dddb8	0.1697911
4	0x3ddc2d62	0.107508436
5	0xbb72ed55	-0.003706773
6	0x3d800944	0.06251767
7	0x3dc74ad2	0.09731068
8	0xbe0350ba	-0.12823763
9	0x3e15043f	0.14552401
10	0xbdef6ee2	-0.11691071
11	0xbe0c1a5f	-0.13681935
12	0xbda83c25	-0.08214597
13	0xbe2b9b9c	-0.16758579
14	0xbdf12949	-0.11775453
15	0x3e1727af	0.14761232
16	0xbe0845a7	-0.1330782
17	0xbd776dd7	-0.060407486
18	0x3abe204b	0.0014505474
19	0xbd661068	-0.05616799
20	0x3d411954	0.047143295
21	0xbd8207cf	-0.063491456
22	0xbd9b4865	-0.075821675
23	0xbdbd67d0	-0.09248316
24	0x3d807b46	0.062735125
25	0x3e2169c2	0.15763
26	0xbcd4aca2	-0.025961224
27	0x3d0342fe	0.03204631
28	0x3d835b89	0.06413943
29	0xbda5ea36	-0.08101313
30	0xbd41e6d4	-0.047339275
31	0xbd3c9533	-0.046040725

neural_ode_gnn.ode_func.dx_head.0.weight f4 [32, 32]
0	0xbd376d95	-0.04478224
1	0x3e2db982	0.16965297
2	0x3e1d0ca8	0.15336859
3	0xbd345a1f	-0.04403126
4	0xbe0f65ce	-0.14003679
5	0x3e02d0f9	0.12775029
6	0x3d9f1585	0.077677764
7	0x3e1dfa67	0.15427552
8	0xbd82d57b	-0.063883744
9	0x3c65a137	0.014015487
10	0x3dd598fa	0.104295686
11	0x3d17c347	0.037051465
12	0x3bbb2fcf	0.0057124863
13	0xbe158dd7	-0.14604889
14	0xbccfd2be	-0.025369044
15	0x3e1efcd4	0.15526134
16	0xbdbb0da0	-0.09133458
17	0xbe1313bb	-0.14362995
18	0xbde734f6	-0.11289398
19	0xbdd0057b	-0.10157295
20	0xbd9ee0c9	-0.07757718
21	0x3da1e17e	0.07904337
22	0xbe1d6001	-0.15368654
23	0xbe2986c8	-0.16555321
24	0x3d3f02b4	0.046633437
25	0x3d8074ea	0.062722996
26	0xbda87f71	-0.082274325
27	0x3c8cbb8d	0.017179275
28	0x3d994bcd	0.07485161
29	0x3e240070	0.16015792
30	0xbe279909	-0.16366972
31	0xbde76a97	-0.11299627
32	0x3e151dca	0.14562145
33	0xbe1dd0ba	-0.15411654
34	0x3d4b3872	0.049614377
35	0x3c179586	0.009251958
36	0x3da38af9	0.07985491
37	0x3c04befb	0.008102174
38	0x3cc67827	0.024227215
39	0xbc9dd5ac	-0.019266926
40	0x3e052d49	0.13005556
41	0x3d3480f0	0.044068277
42	0xbde4b19b	-0.11166688
43	0x3daa6215	0.08319489
44	0x3dae9645	0.085247554
45	0x3e09fe1a	0.13475838
46	0x3d594675	0.05304571
47	0x3e0057b9	0.12533464
48	0xbe244ff3	-0.16046123
49	0xbd33882a	-0.043831028
50	0x3e02cb02	0.12772754
51	0x3dd79fdf	0.1052854
52	0x3dbab373	0.091162585
53	0xbd9e923f	-0.07742738
54	0xbd39d192	-0.045365877
55	0x3db2238b	0.086981855
56	0x3d7dc449	0.06195477
57	0xbd82088a	-0.06349285
58	0x3d01e2db	0.031710487
59	0x3d344d88	0.044019252
60	0xbde8eea2	-0.113736406
61	0x3d5220bc	0.05130075
62	0x3e049160	0.12946081
63	0x3daee034	0.08538857
64	0xbdd371c5	-0.10324434
65	0x3d106ec9	0.035261903
66	0x3db45b0a	0.08806427
67	0x3d2f158b	0.042745154
68	0x3d84fb1f	0.0649321
69	0x3da7a890	0.081864476
70	0x3d390c9f	0.045178052
71	0x3d36ae8c	0.044600055
72	0xbd91598b	-0.07097157
73	0x3d7fd2e0	0.062456965
74	0x3d90ae00	0.07064438
75	0x3dfc392f	0.123155944
76	0xbe0daccd	-0.1383545
77	0x3e26a398	0.16273344
78	0xbbbd26b7	-0.0057724374
79	0xbd0a5894	-0.03377588
80	0x3d001419	0.031269167
81	0x3d4415f0	0.047872484
82	0xbe078a0a	-0.13236251
83	0xbd817d45	-0.063227214
84	0x3ddb47a7	0.10707026
85	0x3dce66a2	0.100781694
86	0xbe071bcf	-0.13194202
87	0x3e33719e	0.1752381
88	0xbd7b84cb	-0.061405938
89	0xbd685d62	-0.05672968
90	0x3df0c814	0.11756912
91	0xbe3690a2	-0.1782861
92	0xbd7854b2	-0.060627647
93	0x3e31f605	0.17379005
94	0xbe337960	-0.1752677
95	0xbd3ebb3f	-0.04656529
96	0x3d63a54e	0.05557757
97	0xbe07d56c	-0.13265008
98	0x3e0c5a27	0.13706265
99	0x3da4f4b6	0.080544874
100	0x3e316683	0.17324261
101	0x3e05793c	0.13034528
102	0x3e2eea1d	0.17081495
103	0x3e28f8c6	0.1650115
104	0xbd87387f	-0.06602573
105	0xbdc1ba31	-0.09459341
106	0x3ca4bfa4	0.020110913
107	0x3dd83bfc	0.10558316
108	0x3de7d9c0	0.113208294
109	0x3e27d6b3	0.16390495
110	0xbd6d4e1a	-0.05793581
111	0x3e29478b	0.16531198
112	0xbcc52f39	-0.02407037
113	0x3e09e23f	0.13465212
114	0xbd18ca30	-0.037302196
115	0x3e1e504c	0.15460318
116	0x3c746cf6	0.014918556
117	0x3dad5787	0.0846396
118	0xbcaced57	-0.021109266
119	0x3d0d8d3f	0.03455853
120	0x3dc4e5e3	0.0961416
121	0xb9eae47e	-0.00044802198
122	0xbe31465b	-0.17311995
123	0xbde760de	-0.11297773
124	0xbdd40d1c	-0.10354063
125	0xbe2f2a60	-0.17106009
126	0xbe1737a7	-0.14767323
127	0x3d1125cf	0.035436448
128	0xbe2b4302	-0.1672478
129	0xbe2c4501	-0.16823198
130	0xbdb0e517	-0.086374454
131	0xbc3749ce	-0.01118703
132	0x3c5858f9	0.0132048065
133	0xbd17eaf1	-0.037089292
134	0xbd89df3d	-0.067320324
135	0x3d0fd578	0.03511569
136	0xbd88a9dc	-0.06673023
137	0x3df90c4a	0.12160547
138	0xbd4c1250	-0.04982215
139	0x3d2b6cf9	0.04185197
140	0xbe109746	-0.14120206
141	0xbd60e584	-0.054906383
142	0x3c5736b7	0.013135604
143	0xbe05226f	-0.13001417
144	0x3ce1fbcf	0.027585892
145	0x3c61e014	0.013786335
146	0x3dd80a91	0.105488904
147	0xbe15e748	-0.14639008
148	0xbe334466	-0.1750656
149	0x3deb3d66	0.1148632
150	0xbcba2e09	-0.02272703
151	0xbdd9770b	-0.10618409
152	0x3d297f25	0.04138102
153	0xbe1bdeed	-0.15221758
154	0xbbf5e045	-0.0075035417
155	0xbe32b8bd	-0.17453285
156	0x3da8f286	0.08249383
157	0x3e1b8683	0.15188031
158	0x3e11ef27	0.14251386
159	0x3e17f64b	0.14840047
160	0xbb913612	-0.0044314945
161	0xbe34aa56	-0.17643103
162	0xbd90a686	-0.07063012
163	0x3e0c7de7	0.13719903
164	0xbde8d5ba	-0.1136889
165	0xbe0c020a	-0.13672653
166	0x3de2321d	0.110447146
167	0x3d7dc979	0.061959717
168	0xbe2c9c4d	-0.16856499
169	0xbdcaf9cd	-0.09910927
170	0xbe317e29	-0.17333283
171	0x3d6f51c5	0.05842759
172	0x3e1b4a75	0.15165122
173	0xbdc21607	-0.09476858
174	0x3da9b0c4	0.082856685
175	0xbd660bde	-0.05616366
176	0x3de20f98	0.110381305
177	0x3d8bee31	0.06832541
178	0xbdf5be4f	-0.11999189
179	0xbe09372f	-0.13399957
180	0x3e0b03f6	0.1357573
181	0xbd86be89	-0.065793104
182	0xbd2c4ca0	-0.042065263
183	0xbe01d791	-0.12679888
184	0xbd806f21	-0.06271196
185	0x3ce6ca02	0.028172497
186	0xbc9bd06f	-0.019020287
187	0xbe0009bf	-0.12503718
188	0xbdfdc5ce	-0.12391244
189	0xbd716c36	-0.05894109
190	0xbe103290	-0.14081788
191	0x3cc7b8da	0.024380136
192	0xbdb78b34	-0.08962098
193	0x3e265ebf	0.1624708
194	0x3dd8f523	0.10593631
195	0xbc21cb10	-0.009875074
196	0xbdc298b7	-0.09501784
197	0xbe1cae27	-0.15300809
198	0xbe20f30e	-0.15717718
199	0x3d82bcfd	0.06383703
200	0x3e00526e	0.12531444
201	0xbd031f09	-0.03201202
202	0x3d3c97e5	0.046043295
203	0x3cf72079	0.030166851
204	0x3c8b625f	0.01701468
205	0x3cfab94b	0.030605933
206	0x3c7fbfe6	0.015609717
207	0xbe0d41ea	-0.13794675
208	0xbd92c038	-0.07165569
209	0xbc99f29b	-0.018792441
210	0x3ce8ad8a	0.028403062
211	0x3c188b8b	0.009310613
212	0xbdf34d68	-0.118799984
213	0xbd215a0a	-0.03939251
214	0xbd64323b	-0.055711966
215	0x3b3b1675	0.002854732
216	0x3d50f17f	0.05101156
217	0x3ce710bd	0.028206224
218	0x3bb63800	0.005560875
219	0xbe292040	-0.16516209
220	0x3e0729bf	0.13199519
221	0x3d025739	0.031821463
222	0x3d40678b	0.046973746
223	0x3cb4b2de	0.022057947
224	0x3da8594b	0.08220156
225	0xbe14cd08	-0.14531338
226	0xbd85e9f0	-0.06538761
227	0xbd06866d	-0.032843042
228	0xbdd2eaab	-0.102986656
229	0x3e340f9d	0.17584081
230	0x3dd97409	0.10617835
231	0xbdf4c142	-0.119509235
232	0xbd52536f	-0.0513491
233	0xbdbfb06e	-0.09359823
234	0xbd8a6d30	-0.06759107
235	0x3d5c68a5	0.053810734
236	0xbe0e2ce6	-0.13884315
237	0xbdd9a2d6	-0.106267616
238	0x3df88070	0.121338725
239	0x3d1cabfd	0.03824996
240	0x3de1e9f8	0.11030954
241	0x3db51689	0.08842189
242	0x3e005b7e	0.12534901
243	0x3e288f06	0.16460809
244	0x3e0877da	0.1332697
245	0xbe1b29d6	-0.15152678
246	0xbdc68324	-0.09692982
247	0xbc0b3be8	-0.0084981695
248	0xbdf75398	-0.12076491
249	0xbd9fdc19	-0.07805652
250	0xbddc078d	-0.10743628
251	0x3cdf02fb	0.0272231
252	0x3de3e83c	0.111282796
253	0x3dd82180	0.105532646
254	0x3e008d71	0.12553956
255	0x3c26c3f5	0.010178556

neural_ode_gnn.ode_func.dx_head.0.bias f4 [32]
0	0x3dda3634	0.1065487
1	0x3c1cc3ef	0.009568199
2	0x3dbb0afc	0.091329545
3	0x3e2983bf	0.16554163
4	0x3db6f219	0.08932895
5	0xbe32a4f4	-0.17445737
6	0x3e06bbbd	0.13157554
7	0xbdbfd2ae	-0.09366356
8	0x3dcb4042	0.099243656
9	0x3e18018d	0.14844342
10	0x3e1b0666	0.1513916
11	0x3e2afe73	0.16698627
12	0x3df49b14	0.11943641
13	0xbe1e5337	-0.15461431
14	0x3dfc7df8	0.12328714
15	0x3d8cce7e	0.06875323
16	0x3e02f96a	0.12790456
17	0xbe0f2b82	-0.1398144
18	0x3da67f08	0.08129698
19	0x3e21bc59	0.15794505
20	0x3e26822f	0.16260599
21	0x3e2f739b	0.17133944
22	0xbc9fc75a	-0.019504238
23	0x3e2ba5ae	0.1676242
24	0x3d123420	0.03569424
25	0xbcfcbc8c	-0.030851625
26	0xbd5bdb7f	-0.053676125
27	0x3db04c11	0.086082585
28	0x3d0120b7	0.03152534
29	0x3e11e370	0.14246917
30	0xbe0e97f7	-0.13925157
31	0x3dcc64d5	0.0998017
